Loading settings
Loading model from model_save/vgg/svnh...
Training on 65931 examples, Validating on 7326 examples, Testing on 26032 examples
Model: "model"
_________________________________________________________________
Layer (type)                 Output Shape              Param #   
=================================================================
input (InputLayer)           [(None, 32, 32, 3)]       0         
_________________________________________________________________
conv2d (Conv2D)              (None, 32, 32, 64)        1792      
_________________________________________________________________
conv2d_1 (Conv2D)            (None, 32, 32, 64)        36928     
_________________________________________________________________
max_pooling2d (MaxPooling2D) (None, 16, 16, 64)        0         
_________________________________________________________________
dropout (Dropout)            (None, 16, 16, 64)        0         
_________________________________________________________________
conv2d_2 (Conv2D)            (None, 16, 16, 128)       73856     
_________________________________________________________________
conv2d_3 (Conv2D)            (None, 16, 16, 128)       147584    
_________________________________________________________________
max_pooling2d_1 (MaxPooling2 (None, 8, 8, 128)         0         
_________________________________________________________________
dropout_1 (Dropout)          (None, 8, 8, 128)         0         
_________________________________________________________________
conv2d_4 (Conv2D)            (None, 8, 8, 256)         295168    
_________________________________________________________________
conv2d_5 (Conv2D)            (None, 8, 8, 256)         590080    
_________________________________________________________________
conv2d_6 (Conv2D)            (None, 8, 8, 256)         590080    
_________________________________________________________________
conv2d_7 (Conv2D)            (None, 8, 8, 256)         590080    
_________________________________________________________________
max_pooling2d_2 (MaxPooling2 (None, 4, 4, 256)         0         
_________________________________________________________________
dropout_2 (Dropout)          (None, 4, 4, 256)         0         
_________________________________________________________________
conv2d_8 (Conv2D)            (None, 4, 4, 512)         1180160   
_________________________________________________________________
conv2d_9 (Conv2D)            (None, 4, 4, 512)         2359808   
_________________________________________________________________
conv2d_10 (Conv2D)           (None, 4, 4, 512)         2359808   
_________________________________________________________________
conv2d_11 (Conv2D)           (None, 4, 4, 512)         2359808   
_________________________________________________________________
max_pooling2d_3 (MaxPooling2 (None, 2, 2, 512)         0         
_________________________________________________________________
dropout_3 (Dropout)          (None, 2, 2, 512)         0         
_________________________________________________________________
conv2d_12 (Conv2D)           (None, 2, 2, 512)         2359808   
_________________________________________________________________
conv2d_13 (Conv2D)           (None, 2, 2, 512)         2359808   
_________________________________________________________________
conv2d_14 (Conv2D)           (None, 2, 2, 512)         2359808   
_________________________________________________________________
conv2d_15 (Conv2D)           (None, 2, 2, 512)         2359808   
_________________________________________________________________
max_pooling2d_4 (MaxPooling2 (None, 1, 1, 512)         0         
_________________________________________________________________
dropout_4 (Dropout)          (None, 1, 1, 512)         0         
_________________________________________________________________
flatten (Flatten)            (None, 512)               0         
_________________________________________________________________
dense (Dense)                (None, 4096)              2101248   
_________________________________________________________________
dropout_5 (Dropout)          (None, 4096)              0         
_________________________________________________________________
dense_1 (Dense)              (None, 4096)              16781312  
_________________________________________________________________
dropout_6 (Dropout)          (None, 4096)              0         
_________________________________________________________________
before_softmax (Dense)       (None, 10)                40970     
_________________________________________________________________
activation (Activation)      (None, 10)                0         
=================================================================
Total params: 38,947,914
Trainable params: 38,947,914
Non-trainable params: 0
_________________________________________________________________
Number of activations considered :  15188
Test size :  26032
Experiment 1/30

Calculating for test set alone
Calculation for the chosen MR set
Coverage :  0.7787727153015539
Similarity :  0.9536071335215581
…
